model/simple_nn_80_smoted.pt (torch, 63125 bytes, 19 tensors)

module.layers.0.weight f4 [128, 10]
0	0x3e974c3b	0.29550347
1	0xbdb31a11	-0.08745206
2	0x3c884bbb	0.016637674
3	0x3e92db42	0.28682905
4	0xbd9b5ca2	-0.07586028
5	0x3dc3c57d	0.09559152
6	0x3e13096a	0.1435906
7	0xbfa16dc8	-1.2611628
8	0xbe57eca2	-0.21086362
9	0xbf84b8f2	-1.0368941
10	0x3eaf2288	0.34206033
11	0xbd7222ea	-0.059115328
12	0x3dd981ae	0.106204376
13	0x3d911c45	0.0708547
14	0xbe516bd6	-0.20451292
15	0x3dc4e61c	0.096142024
16	0xbec59277	-0.38588306
17	0xbfb22687	-1.3918008
18	0xbefa57b4	-0.48895037
19	0xbf13bfc4	-0.57714486
20	0xbdd25a7d	-0.102711655
21	0xbcc44f59	-0.023963617
22	0xbe2083ed	-0.15675326
23	0xbe8e18f8	-0.27753425
24	0xbe12a048	-0.14318955
25	0xbe1ee40c	-0.1551668
26	0xbd437a30	-0.04772395
27	0xbf4e5627	-0.8060021
28	0xbfb21c2c	-1.3914847
29	0x3e320df9	0.17388143
30	0xbe268e52	-0.16265228
31	0xbd9be866	-0.07612686
32	0x3e8c625a	0.27418786
33	0x3f01cf1a	0.50706637
34	0x3f04b05d	0.5183161
35	0x3e3a7372	0.18208101
36	0x3ee9f2d0	0.45693064
37	0xbdbba0f0	-0.09161556
38	0x3f181354	0.5940449
39	0x3df48530	0.11939466
40	0x3edfdeed	0.43724766
41	0xbe1e9c8a	-0.15489402
42	0x3edf4178	0.43604636
43	0x3f21d478	0.63214827
44	0x3e6349e1	0.22196151
45	0x3ef13f9c	0.47118843
46	0x3d99e789	0.07514865
47	0xbcd4d781	-0.025981667
48	0x3f866fa6	1.0502822
49	0x3f2799c7	0.6546902
50	0x3fe606d6	1.7970836
51	0x3e49144a	0.19636646
52	0x3e670fc6	0.22564611
53	0x3eb27017	0.34851143
54	0x3cdf7cb2	0.027281139
55	0xbd34b108	-0.044114143
56	0x3d48b8c0	0.049004316
57	0x3de52c19	0.111900516
58	0x3e3304a9	0.17482246
59	0xbea48a3f	-0.32136723
60	0x3eb29c78	0.34885
61	0xbecccd22	-0.40000254
62	0x3f0a4c8f	0.5402307
63	0x3f017ae1	0.50578123
64	0x3e92ad82	0.28648
65	0x3f465165	0.7746795
66	0x3f55dd96	0.8354124
67	0x3f06eab0	0.52701855
68	0x3f85e3a8	1.04601
69	0x3dc7ab94	0.09749523
70	0x3baa8739	0.005204108
71	0xbf2a004d	-0.6640671
72	0x3e6cdab0	0.23130298
73	0xbc2f4790	-0.010698214
74	0xbd5561a0	-0.052095056
75	0x3ea79adc	0.32735336
76	0xbb1f64c3	-0.0024321533
77	0xbeacd578	-0.33756614
78	0xbf8b1118	-1.0864592
79	0xbf49c198	-0.78811026
80	0xbdddba89	-0.108265944
81	0x3f276c35	0.65399486
82	0xbed04ed2	-0.40685135
83	0xbf44ee39	-0.76926
84	0xbdee0d1e	-0.11623596
85	0xbeb0fbba	-0.34567052
86	0x3d0be09d	0.034149755
87	0x3d67e80d	0.056617785
88	0x3d955d1e	0.07293151
89	0xbd62e6f5	-0.05539604
90	0x3e622029	0.2208258
91	0xbe58e757	-0.21181999
92	0xbe135986	-0.14389619
93	0xbeedab43	-0.46419725
94	0xbe980748	-0.29693055
95	0xbec98f41	-0.39367107
96	0x3ebc37fb	0.3676146
97	0x3f0c1d6a	0.5473238
98	0x3d32b6db	0.043631416
99	0x3dd8cc21	0.105858095
100	0xbda7bf98	-0.081908405
101	0xbe1df5c3	-0.15425782
102	0x3e6ce286	0.23133287
103	0x3e2849d2	0.1643441
104	0xbc9ce445	-0.019151816
105	0x3ebd4edc	0.36974227
106	0x3f39d959	0.7259727
107	0x3f149181	0.5803452
108	0x3fae4c7c	1.3617091
109	0x3e74e79f	0.23916481
110	0x3e0bb25e	0.1364226
111	0xbe9d29f3	-0.30696067
112	0x3e9c10c7	0.3048155
113	0xbea368e2	-0.31915957
114	0x3e83d04a	0.2574485
115	0x3d8b0578	0.067881525
116	0x3f066cc3	0.5250971
117	0xbd4c7646	-0.04991748
118	0xbeb24771	-0.3482013
119	0x3efb8382	0.4912377
120	0xbe4939d0	-0.1965096
121	0xbca33dae	-0.019926872
122	0xbd8d71c1	-0.069064625
123	0xbdb72179	-0.08941931
124	0x3d292e03	0.041303646
125	0x3c0dc986	0.008654004
126	0xbe64b8da	-0.2233614
127	0x3d305932	0.043053813
128	0xbfac1831	-1.3444883
129	0xbe0b4562	-0.13600686
130	0x3f80d6a9	1.0065509
131	0xbe724aba	-0.23661318
132	0xbe9b3fc0	-0.30322075
133	0x3e960f50	0.29308558
134	0xbd42af15	-0.047530252
135	0xbf24def9	-0.6440273
136	0x3eaaa6b5	0.33330312
137	0x3de59ac2	0.11211158
138	0x3f6a8d34	0.9162171
139	0xbddc1a07	-0.10747152
140	0xbe94e315	-0.290795
141	0x3e78fc64	0.2431503
142	0xbf4fdeec	-0.81199527
143	0x3dfaf143	0.12253048
144	0xbebf825e	-0.3740415
145	0xbe551ba1	-0.20811321
146	0xbecc3214	-0.39881957
147	0xbf4e37d2	-0.80553925
148	0xbedff590	-0.43742037
149	0xbde0ff97	-0.1098625
150	0x3f2a941c	0.66632247
151	0xbf0ba47c	-0.5454786
152	0x3ead4594	0.33842146
153	0x3e5c1da9	0.2149569
154	0xbc72f5f8	-0.014829151
155	0x3ea3b777	0.3197591
156	0x3ebc0a62	0.3672667
157	0x3c98497d	0.01858973
158	0xbf1085cc	-0.5645416
159	0x3ea91498	0.33023524
160	0xbed78aad	-0.4209799
161	0xbddaf0ea	-0.10690482
162	0xbe3273d9	-0.17427005
163	0xbd9f6484	-0.07782844
164	0xbe5a7faf	-0.2133777
165	0x3e581838	0.21102989
166	0x3ec9c012	0.3940435
167	0xbcf085e7	-0.029360725
168	0xbf7ce085	-0.9878009
169	0x3ec9c6b9	0.39409426
170	0x3f261ab9	0.64884526
171	0xbe5cc6cc	-0.2156021
172	0x3e36f136	0.17865452
173	0x3f2aa3d7	0.6665625
174	0x3e964441	0.2934895
175	0x3e2ea18f	0.17053817
176	0xbeaa44fe	-0.33255762
177	0x3e1fa5a0	0.15590525
178	0xbd8a028a	-0.067387655
179	0xbebf289f	-0.3733568
180	0x3ea942fe	0.33058923
181	0xbebb213c	-0.36548793
182	0x3f266859	0.6500297
183	0x3cc910ec	0.024544202
184	0x3eee36ae	0.46526092
185	0x3e8dde44	0.27708638
186	0xbebb76b0	-0.3661399
187	0xbdc760d3	-0.09735265
188	0xbf17e9a2	-0.5934087
189	0xbe24e608	-0.16103375
190	0xbe78ff44	-0.24316126
191	0xbf3b350c	-0.7312782
192	0x3f44f789	0.7694021
193	0x3decd01f	0.115631334
194	0xbd317452	-0.043323822
195	0xbf141efa	-0.57859766
196	0xbebe81c7	-0.37208387
197	0x3e3879c8	0.18015206
198	0xbf07e402	-0.5308229
199	0x3dfd5657	0.12369984
200	0xbde987af	-0.11402833
201	0xbd2f2a99	-0.042765234
202	0x3e7eef91	0.24896075
203	0xbd60bcca	-0.054867543
204	0xbe1d4ddb	-0.15361731
205	0xbc75c6b0	-0.015000984
206	0x3e75b1f1	0.2399366
207	0xbe6ee7d6	-0.23330626
208	0xbf9106a7	-1.1330155
209	0x3eff48c1	0.49860194
210	0xbdfedceb	-0.124444805
211	0xbf015c17	-0.5053114
212	0xbe2ba3e1	-0.16761734
213	0x3c60ad08	0.013713129
214	0x3e8ce261	0.27516463
215	0xbd912c9d	-0.070885874
216	0xbecac197	-0.39600822
217	0xbfb2fc41	-1.3983232
218	0xbfcaecd8	-1.5853529
219	0xbea311d8	-0.3184955
220	0xbeffa617	-0.49931404
221	0xbe858c9f	-0.26083848
222	0x3e92f512	0.287026
223	0xbe4280ae	-0.189944
224	0xbdc0561f	-0.09391426
225	0xbeb5919c	-0.35462654
226	0x3e0f066f	0.13967298
227	0x3e22169b	0.15828936
228	0xbf809452	-1.0045264
229	0xbf0c3344	-0.54765725
230	0x3d8f8762	0.07008244
231	0xbecc25db	-0.3987263
232	0xbee6a2fa	-0.45046216
233	0xbf0497c4	-0.51794076
234	0xbe8a0d96	-0.2696349
235	0xbe92362e	-0.2855696
236	0x3f143829	0.57898194
237	0x3df846b1	0.12122858
238	0x3df3b867	0.11900406
239	0x3ef0479c	0.46929634
240	0xbda4ad95	-0.08040921
241	0xbd7db066	-0.061935805
242	0xbb8c243b	-0.00427678
243	0xbe41dcfd	-0.18931957
244	0x3b2fe8d9	0.002684167
245	0xbe6653ae	-0.22492859
246	0x3e662bbe	0.22477624
247	0xbe469fc7	-0.19396888
248	0x401a38bb	2.4097126
249	0xbdc5e4a9	-0.09662754
250	0x3ed33b17	0.4125602
251	0x3d60888c	0.05481772
252	0x3e3236b3	0.17403679
253	0xbe06693a	-0.13126078
254	0xbdc6a01b	-0.096985064
255	0xbdb496e0	-0.088178396

module.layers.0.bias f4 [128]
0	0xbe72b157	-0.23700462
1	0x3db3f5c6	0.08787112
2	0xbe859385	-0.2608911
3	0x3ca5cd4b	0.020239493
4	0x3d7ea6c8	0.062170774
5	0xbe8fd543	-0.28092393
6	0x3e3943e5	0.18092306
7	0xbe18f984	-0.14938933
8	0x3e845668	0.25847173
9	0xbe323478	-0.17402828
10	0xbe60e123	-0.21960883
11	0x3e11d69b	0.14242022
12	0x3e834f19	0.25646284
13	0x3e4b8292	0.19874027
14	0xbe2352bb	-0.15949528
15	0x3e568770	0.20950103
16	0xbe8700f6	-0.2636792
17	0x3e663658	0.22481668
18	0xbdb5ec3d	-0.088829495
19	0xbe6dadbf	-0.2321081
20	0x3d93fc0f	0.07225811
21	0xbe008dc9	-0.12554087
22	0xbe19fa86	-0.15036973
23	0xbe0020aa	-0.1251246
24	0x3d08d2f7	0.033404317
25	0x3e003a01	0.12522127
26	0xbe8dfbcb	-0.27731165
27	0xbe4ae46c	-0.19813699
28	0x3cea5dd4	0.028609194
29	0xbe8bd3d8	-0.2731006
30	0xbda051e7	-0.07828122
31	0x3e897da5	0.26853672
32	0x3e81725d	0.25282565
33	0x3d7d506f	0.061844286
34	0xbd46f1de	-0.048570506
35	0x3e21331a	0.1574215
36	0xbe4a4475	-0.19752677
37	0xbe009260	-0.12555838
38	0x3e809ee8	0.25121236
39	0x3e4837e0	0.19552565
40	0xbe125759	-0.14291133
41	0x3d59b6bf	0.053152796
42	0xbd2e0f27	-0.04249492
43	0x3e035bfd	0.1282806
44	0xbd13d169	-0.03608838
45	0xbdb2ce71	-0.08730782
46	0xbb5594d9	-0.003258994
47	0xbd4a4ea3	-0.0493914
48	0x3cbc94f3	0.023020243
49	0x3dd47833	0.10374489
50	0xbd0581c4	-0.032594457
51	0xbe8827dc	-0.2659291
52	0x3e0680e5	0.13135107
53	0x3dafb53b	0.08579489
54	0xbe5f1e54	-0.21788913
55	0x3e179663	0.14803462
56	0x3e2e3103	0.17010884
57	0x3e22a2eb	0.15882461
58	0x3dbaaa6a	0.09114535
59	0x3b3f9afa	0.002923666
60	0x3df11ea8	0.11773425
61	0x3df3c9d1	0.11903728
62	0x3e947b07	0.29000112
63	0xbe2521a3	-0.16126113
64	0xbe51d3ea	-0.20490995
65	0x3e0a777d	0.13522144
66	0x3e74d665	0.2390991
67	0x3e625b3a	0.22105113
68	0x3d2287e0	0.03968036
69	0x3e0fbd9b	0.14037172
70	0xbe8f0d7b	-0.27939972
71	0x3de24b70	0.11049545
72	0x3e2e95d7	0.17049347
73	0x3e158f0d	0.14605351
74	0xbd180ece	-0.037123494
75	0xbe8e28bc	-0.27765453
76	0x3d020c98	0.03175029
77	0x3dd646b6	0.10462706
78	0x3e5b42b3	0.21412162
79	0xbccd9ce4	-0.025099225
80	0x3e317efb	0.17333595
81	0xbcb2acdb	-0.02181094
82	0x3e1c3972	0.15256289
83	0x3cc1c0df	0.023651538
84	0xbde7bc60	-0.113152266
85	0xbe1da2aa	-0.15394083
86	0x3e1797f8	0.14804065
87	0x3e5ba9c3	0.21451478
88	0x3e3f09cd	0.18656082
89	0x3dd77c1b	0.10521718
90	0xbe80f5e4	-0.251876
91	0xbd07bce7	-0.033139136
92	0xba1c6644	-0.00059661665
93	0x3e867783	0.26263055
94	0xbe8d1967	-0.27558443
95	0x3e31bf43	0.17358117
96	0x3dca06de	0.09864591
97	0xbcbfad70	-0.023398131
98	0x3b141d68	0.0022600535
99	0xbe586e9e	-0.21135947
100	0x3e9329b2	0.28742748
101	0xbdd6e59b	-0.104930125
102	0x3d72c6fd	0.0592718
103	0x3e47e5de	0.19521281
104	0x3cfd93ef	0.03095433
105	0x3dfec922	0.12440707
106	0x3b1d96db	0.0024046216
107	0x3d7fdf6e	0.06246894
108	0x3d972a70	0.07381141
109	0xbd15e85e	-0.036598556
110	0xbded7eaa	-0.11596425
111	0xbdfb5e48	-0.12273842
112	0x3dc7ef3d	0.09762428
113	0xbc55c15c	-0.013046589
114	0xbe846661	-0.2585936
115	0xbddb9021	-0.1072085
116	0x3db833d9	0.08994264
117	0xbe3c98b3	-0.18417625
118	0x3d731c73	0.059353303
119	0xbe963414	-0.29336607
120	0x3ea7c073	0.32764015
121	0x3e10b55e	0.14131686
122	0x3e59b222	0.21259359
123	0xbbe67c75	-0.0070338794
124	0x3e886395	0.26638475
125	0xba983435	-0.0011612239
126	0x3e1b305a	0.15155163
127	0x3d25a30a	0.04043869

module.layers.1.weight f4 [128]
0	0x3faa1e36	1.329047
1	0x3fc33743	1.525124
2	0x3f6717e5	0.90270835
3	0x3f4aa61c	0.7915971
4	0x3f53c105	0.827164
5	0x3fa6ceef	1.3031901
6	0x3f66c4d4	0.90144086
7	0x3f310b4c	0.6915786
8	0x3edd2dcd	0.43199006
9	0x3e89fa60	0.26948833
10	0x3f886f66	1.0658996
11	0x3f3d8962	0.74037755
12	0x3f8cbade	1.0994527
13	0x3f9eee8e	1.2416551
14	0x3f6ec3c0	0.9326744
15	0x3f13043b	0.5742833
16	0x3f15a97b	0.5846173
17	0x3f8ae673	1.0851578
18	0x3f296a92	0.6617824
19	0x3f8ccc87	1.0999917
20	0x3f9e1d4c	1.2352691
21	0x3f23949e	0.63898647
22	0x3d319a9d	0.04336034
23	0x3f407e56	0.75192773
24	0x3fa292c0	1.2701035
25	0x3f1caf78	0.61205244
26	0x3fe3185c	1.7741809
27	0x3f7dfbc8	0.9921231
28	0x3f1b57ca	0.6068083
29	0x3fb86eb0	1.4408779
30	0x3f1aa44b	0.6040694
31	0x3ed7c783	0.42144403
32	0x3f94d1f1	1.1626569
33	0x3f8d273c	1.1027598
34	0x3f0f295c	0.55922484
35	0x3fcd705f	1.6049918
36	0x3fae0d89	1.3597881
37	0x3f2279eb	0.6346728
38	0x3fb17034	1.3862367
39	0x3ecf5764	0.4049636
40	0x3eafa724	0.34307206
41	0x3f215397	0.6301817
42	0x3ebbeb4d	0.36702958
43	0x3f70780d	0.9393318
44	0x3f07cdf4	0.53048635
45	0x3f479290	0.7795801
46	0x3e5469dc	0.20743507
47	0x3ee33904	0.44379437
48	0x3e58461c	0.21120495
49	0x3f91399b	1.1345705
50	0x3f7aef8f	0.9802179
51	0x3fd1f37d	1.6402432
52	0x3f39164b	0.7229964
53	0x3f38ddcd	0.7221344
54	0x3f6980c8	0.9121213
55	0x3f17d32d	0.59306604
56	0x3f8a8fb7	1.0825108
57	0x3fc15dd3	1.5106758
58	0x3f905919	1.127719
59	0x3f10546b	0.5637881
60	0x3f27d254	0.6555531
61	0x3f34314c	0.7038772
62	0x3f3b67fb	0.73205537
63	0x3ed70257	0.41993973
64	0x3ef3a0ae	0.47583526
65	0x3f8a9f7b	1.082992
66	0x3f39b594	0.7254269
67	0x3f5be4c0	0.8589592
68	0x3ed98a30	0.4248824
69	0x3ede9c37	0.43478557
70	0x3f2fe06c	0.68701816
71	0x3f1cfd3c	0.61323905
72	0x3f2c8cf8	0.674026
73	0x3f823170	1.0171337
74	0x3f0dffb0	0.55468273
75	0x3f194f8e	0.59887016
76	0x3ff5367f	1.9157256
77	0x3f128e00	0.57247925
78	0x3e46630f	0.19373725
79	0x3f6b4317	0.91899246
80	0x3f816a85	1.0110632
81	0x3ed287ce	0.41119236
82	0x3f13c42b	0.57721204
83	0x3f593069	0.84839493
84	0x3f012468	0.50446177
85	0x3f33e691	0.7027369
86	0x3ea0b244	0.31386006
87	0x3f29150f	0.6604776
88	0x3f22f223	0.6365072
89	0x3f2223f6	0.6333612
90	0x3f282187	0.6567616
91	0x3f89a014	1.0751977
92	0x3f11439a	0.56743777
93	0x3f00953d	0.5022772
94	0x3f12afdb	0.57299584
95	0x3f01f944	0.50770974
96	0x3fa7c63c	1.3107371
97	0x3f2f528e	0.68485343
98	0x3f50d036	0.81567705
99	0x3fa54786	1.2912452
100	0x3f228e94	0.63498807
101	0x3f018b4d	0.5060318
102	0x3efcd7e9	0.49383476
103	0x3f084ee1	0.5324536
104	0x3f84c968	1.0373964
105	0x3f6d5a13	0.9271557
106	0x3f5d72ac	0.865031
107	0x3eeca300	0.4621811
108	0x3f0494f8	0.5178981
109	0x3f0b9c4e	0.5453538
110	0x3fa4f541	1.2887346
111	0x3e87b819	0.26507643
112	0x3f210ba3	0.6290838
113	0x3fb5d4af	1.4205531
114	0x3f0577e8	0.5213609
115	0x3f2a14ef	0.6643819
116	0x3f8f44fd	1.1192929
117	0x3f04e038	0.5190463
118	0x3f0788b1	0.5294295
119	0x3f1e44f8	0.6182399
120	0x3f7fa018	0.9985366
121	0x3f1f61da	0.62258685
122	0x3efb0bde	0.4903249
123	0x3ecfe3c6	0.40603465
124	0x3f1d906f	0.61548513
125	0x3f05f43c	0.523258
126	0x3f543ecb	0.82908314
127	0x3f61f04b	0.8825728

module.layers.1.bias f4 [128]
0	0xbe9864f8	-0.29764533
1	0xbd536d0b	-0.051617663
2	0x3d8a434e	0.067511186
3	0xbda8b090	-0.082368016
4	0xbf3c1fd9	-0.73486096
5	0xbe380481	-0.17970468
6	0xbeba6837	-0.36407635
7	0xbf2da486	-0.6782917
8	0xbe9f99c3	-0.31171998
9	0xbdda91a4	-0.1067231
10	0xbf452c8d	-0.77021104
11	0xbecbe1f3	-0.39820823
12	0x3f0461a9	0.5171152
13	0xbeaa402b	-0.3325208
14	0xbe1eea9a	-0.15519181
15	0xbefcd744	-0.49382985
16	0xbdf12a33	-0.11775627
17	0xbe1dce54	-0.15410739
18	0xbe4a2602	-0.19741061
19	0x3e4835ce	0.19551775
20	0x3ed622a9	0.4182332
21	0xbf2deb01	-0.6793671
22	0xbdfa239a	-0.12213822
23	0xbedd0f54	-0.43175757
24	0xbf7ebf70	-0.9951086
25	0xbe7e66c3	-0.24843888
26	0xbf3aa845	-0.7291301
27	0x3ec3d899	0.38251188
28	0xbf24352c	-0.64143634
29	0x3e97c87f	0.29645154
30	0xbf0cf13f	-0.5505561
31	0xbec2eab3	-0.38069686
32	0x3e4a090b	0.19730012
33	0x3ec84b57	0.3911998
34	0xbee65c43	-0.44992265
35	0xbf60bcea	-0.8778826
36	0xbf715419	-0.9426895
37	0xbf2f7f1d	-0.68553334
38	0xbe98d354	-0.2984873
39	0xbf7f51a6	-0.9973396
40	0xbe998798	-0.29986262
41	0xbd88e25c	-0.066837996
42	0xbebf263d	-0.3733386
43	0xbf41334a	-0.75468886
44	0xbf085f43	-0.5327036
45	0xbe0ee357	-0.13953911
46	0xbea245c4	-0.31693852
47	0xbed7d1b7	-0.42152187
48	0xbedb2860	-0.4280424
49	0xbd798f0d	-0.06092744
50	0xbede0b79	-0.43368128
51	0xbf5064f9	-0.8140407
52	0xbf24f4ce	-0.6443604
53	0xbebe590c	-0.37177312
54	0x3dde053b	0.108408414
55	0xbedba567	-0.4289963
56	0xbee0b419	-0.43887404
57	0xbe96f85c	-0.29486358
58	0xbe9057b6	-0.28191918
59	0xbf092687	-0.53574413
60	0xbf5e8508	-0.8692174
61	0xbede9497	-0.4347274
62	0xbe1efc53	-0.15525942
63	0xbf625c30	-0.88421917
64	0xbf40a702	-0.75254834
65	0xbf06e6f4	-0.52696157
66	0xbe208592	-0.15675953
67	0xbeaf7123	-0.34266004
68	0xbed2e235	-0.41188207
69	0xbf14f7cd	-0.58190614
70	0xbf3bd342	-0.7336923
71	0xbeea5e2b	-0.4577497
72	0xbf000a73	-0.50015944
73	0x3e6cd21c	0.23127025
74	0xbf19d0f3	-0.60084456
75	0xbf13e84d	-0.5777634
76	0xbc30952d	-0.010777754
77	0xbf219a44	-0.63126016
78	0xbe9b0539	-0.30277422
79	0xbe54b3d8	-0.2077173
80	0x3ddddfb9	0.10833687
81	0xbed2f32c	-0.4120115
82	0xbf243996	-0.6415037
83	0xbec3c060	-0.38232708
84	0xbf416fb6	-0.7556108
85	0xbf3fe8bb	-0.74964494
86	0xbea0e6de	-0.31426138
87	0xbdd37c93	-0.10326495
88	0xbf18ead0	-0.59733295
89	0xbf4747f6	-0.7784418
90	0x3e61bb5c	0.22044128
91	0x3e13fc39	0.14451684
92	0xbf13ad67	-0.57686466
93	0xbdae9129	-0.08523781
94	0xbf4220bf	-0.75831217
95	0xbf06f231	-0.52713305
96	0xbe43cc4f	-0.19120906
97	0xbf5b3610	-0.8562937
98	0xbecddb2d	-0.4020628
99	0xbf9d8840	-1.2307205
100	0xbf266905	-0.65004
101	0xbf171cbe	-0.5902823
102	0xbf68b0d9	-0.9089485
103	0xbf9b44e7	-1.2130402
104	0xbd69b330	-0.057055652
105	0xbe87bacb	-0.265097
106	0x3d67a785	0.056556243
107	0xbef7b19a	-0.48377687
108	0xbf1fcfe5	-0.62426597
109	0xbf3d9708	-0.7405858
110	0xbe285245	-0.16437633
111	0xbed9d727	-0.4254696
112	0xbd9836ee	-0.07432352
113	0xbf4d25ee	-0.80136
114	0xbeda02a4	-0.4258014
115	0xbf3a11c2	-0.72683346
116	0x3ef7e2ee	0.4841532
117	0xbf1d0729	-0.6133905
118	0xbf383030	-0.7194853
119	0xbf7164b0	-0.9429426
120	0xbfa1dd6c	-1.2645698
121	0xbf278d0b	-0.6544959
122	0xbeba7b32	-0.36422116
123	0xbf1d36c8	-0.61411715
124	0xbf578aa3	-0.8419592
125	0x3e04d4bb	0.12971775
126	0xbe4817d8	-0.19540346
127	0xbeffe810	-0.49981737

module.layers.1.running_mean f4 [128]
0	0xbf84ce09	-1.0375377
1	0xbf7d2c1e	-0.9889544
2	0xbfddb4ee	-1.732084
3	0x3f9931ef	1.1968364
4	0x40035941	2.0523226
5	0x3fbf8af5	1.4964281
6	0x401accaa	2.4187417
7	0xbfbc48bf	-1.47097
8	0xbe0c5854	-0.1370557
9	0xbed57702	-0.41692358
10	0x3fada64b	1.3566374
11	0x3efc4a2e	0.49275345
12	0xbf3e8549	-0.74422127
13	0x3f5cd71b	0.86265725
14	0xbfebde08	-1.8427134
15	0x3f43bea5	0.76462775
16	0xbf7709b2	-0.9649917
17	0x3f6cdaa9	0.9252115
18	0x3e25bd7e	0.16185567
19	0xbf66bf99	-0.90136105
20	0xbe7dc9ec	-0.24784058
21	0xc018b908	-2.3862934
22	0xbfaf7fd8	-1.371089
23	0xbf417b68	-0.7557893
24	0x3f4f6b4f	0.81023115
25	0x3e5d6ace	0.21622774
26	0x3e732c17	0.23747288
27	0xbf7cb15b	-0.9870812
28	0xbfccb0c4	-1.5991445
29	0xbee9389d	-0.45551005
30	0xbf0a01ca	-0.5390898
31	0x3f08a8ff	0.5338287
32	0xbe74b8ad	-0.23898573
33	0xbfd2dc6e	-1.647352
34	0x3f6870ba	0.9079701
35	0x3fda9b81	1.7078706
36	0x3fa750b7	1.3071507
37	0xc003a285	-2.0567944
38	0x3fbd57a6	1.4792373
39	0x3f9d1c0b	1.2274183
40	0xbdf8940d	-0.121376134
41	0xbf19bb9a	-0.6005188
42	0x3f572894	0.8404629
43	0xbe6ad9a3	-0.22934584
44	0xbe60f081	-0.21966745
45	0x3e53c9b0	0.20682406
46	0xbf858e74	-1.0434098
47	0x3e0fe96e	0.1405389
48	0xbfd26794	-1.643786
49	0x3fc781fb	1.5586542
50	0xbebebed6	-0.3725497
51	0x3fc05423	1.5025676
52	0x401da621	2.4632647
53	0x3f8151a5	1.0103041
54	0xbf9695fd	-1.1764523
55	0x3e2f8c1e	0.17143294
56	0x3ea21923	0.31659803
57	0x3f9c2ce6	1.2201202
58	0x3daa8feb	0.083282314
59	0xbfe5da9c	-1.7957339
60	0x40314f1f	2.7704542
61	0x3e9076f8	0.28215766
62	0xbf6f5f98	-0.9350524
63	0xbf07de10	-0.53073215
64	0xbf5fd4db	-0.87434167
65	0xbe7d1d2e	-0.24718162
66	0x3ed8ac38	0.42318892
67	0x3f441d0c	0.7660682
68	0xbfdd2eda	-1.7279923
69	0xbf15aee7	-0.58470005
70	0xc0006d9e	-2.0066905
71	0x4006db08	2.1071186
72	0xbeba0550	-0.36332178
73	0xbfbfc5dd	-1.4982258
74	0xc022a508	-2.5413227
75	0xc00422ba	-2.0646195
76	0x3fdbe905	1.7180487
77	0xbfe96063	-1.823254
78	0xbfaa819a	-1.3320801
79	0xbede19eb	-0.4337915
80	0xbfcdfb05	-1.609223
81	0xbf39cf7c	-0.7258222
82	0x3f0eee55	0.55832416
83	0xbf8dac37	-1.1068181
84	0xbd7a1564	-0.061055556
85	0x3d8f18ef	0.069871776
86	0xbfddf7ca	-1.7341244
87	0x3e95b79b	0.29241642
88	0x3f55f789	0.83580834
89	0xbe9484ae	-0.29007477
90	0xbfa8a919	-1.3176605
91	0xbfb818cd	-1.4382569
92	0xbfe6f191	-1.804247
93	0xbf9b667e	-1.2140653
94	0x3fa8ca7e	1.3186796
95	0xbe5d78d2	-0.2162812
96	0xbdd126e3	-0.10212495
97	0x3e906494	0.28201735
98	0xbf97752e	-1.1832635
99	0x3f8183d2	1.0118353
100	0xbfb7c01a	-1.43555
101	0xbcd3872f	-0.025821296
102	0xbf2cedea	-0.6755053
103	0x3fda7c96	1.7069271
104	0xbe6220ac	-0.22082776
105	0x3e6d312a	0.23163286
106	0x3f903316	1.126559
107	0xbfb162f7	-1.3858327
108	0xbf36ea5b	-0.7145135
109	0xbfba77e4	-1.4567838
110	0x3f175054	0.59106946
111	0xbf8cde1e	-1.1005285
112	0x3ef01a89	0.46895245
113	0x3f8dae3c	1.1068797
114	0xbfa55342	-1.2916033
115	0xbfba6167	-1.4560975
116	0xbebffcba	-0.37497503
117	0xbf2aa735	-0.6666139
118	0x3fca1bab	1.5789694
119	0x3e6abea8	0.22924292
120	0x3f89c92d	1.0764519
121	0xbfc679ba	-1.5505898
122	0x3ebfdda2	0.3747378
123	0x3f212637	0.62948936
124	0x3ecce582	0.4001885
125	0xbe9f6f5e	-0.31139654
126	0xbf172dec	-0.59054446
127	0x40377c66	2.8669677

module.layers.1.running_var f4 [128]
0	0x3f816d0c	1.0111403
1	0x3fe0f464	1.7574582
2	0x3fd8be4b	1.6933073
3	0x3f8690f4	1.0512986
4	0x401e2ebd	2.4716027
5	0x3ef0c039	0.47021654
6	0x4084c372	4.148858
7	0x3f7af442	0.9802896
8	0x3ea87fa2	0.32909876
9	0x3dccc4cb	0.09998473
10	0x4031ebef	2.7800252
11	0x3e24af5e	0.16082522
12	0x3f4f9acb	0.8109557
13	0x3ed01767	0.40642855
14	0x3fc9543e	1.5728834
15	0x3e802d6a	0.25034648
16	0x3da6291a	0.08113308
17	0x3e4bf0aa	0.19916025
18	0x3dafb7c1	0.0857997
19	0x3ea5aaf9	0.32357004
20	0x3e1d9246	0.1538783
21	0x405e982f	3.4780385
22	0x3f7be96f	0.98403066
23	0x3e09a4f9	0.13441838
24	0x3f7ab0fd	0.9792631
25	0x3d6f4a16	0.058420263
26	0x3f64fc7b	0.89447755
27	0x3f37a39a	0.7173401
28	0x4051e590	3.2796364
29	0x3df447cb	0.11927756
30	0x3f2a79da	0.6659218
31	0x3da40edb	0.08010646
32	0x3e078a8b	0.13236444
33	0x40067b10	2.1012611
34	0x3e32b4b6	0.17451748
35	0x4052cda8	3.2938023
36	0x4039d59d	2.903663
37	0x40a172c7	5.045261
38	0x3ea0d2dc	0.31410873
39	0x3f6115b3	0.87923735
40	0x3d79a2e3	0.060946357
41	0x3f360db4	0.7111466
42	0x3f4564cd	0.77106935
43	0x3d9d7894	0.07689014
44	0x3d3bb321	0.045825128
45	0x3c866347	0.016404761
46	0x3f83acbd	1.028709
47	0x3e256292	0.16150883
48	0x4017c2a7	2.3712556
49	0x3ef6bf99	0.48193052
50	0x3d26b771	0.040702287
51	0x408dbe64	4.429491
52	0x4059a57a	3.400725
53	0x3f054ef2	0.52073586
54	0x3f84a684	1.0363317
55	0x3d1f50fd	0.038895596
56	0x3e3a4f00	0.18194199
57	0x3e2b5e5f	0.16735218
58	0x3d505c90	0.050869524
59	0x4075c7de	3.840324
60	0x408fbce4	4.491808
61	0x3dc5bd47	0.096552424
62	0x3f529f0b	0.8227393
63	0x3db85822	0.09001185
64	0x3da5bd84	0.08092788
65	0x3eea4323	0.45754346
66	0x3d9384bc	0.072030514
67	0x3d4dd51b	0.05025206
68	0x3fc33996	1.5251949
69	0x3eed231f	0.46315858
70	0x40989f4c	4.7694454
71	0x4061c85c	3.527854
72	0x3d144b66	0.036204718
73	0x3f525a81	0.8216935
74	0x40e3b8c7	7.116306
75	0x4092603a	4.5742464
76	0x3fd2b10e	1.6460283
77	0x406424f8	3.5647564
78	0x3fbeeea7	1.4916581
79	0x3db0ecda	0.08638926
80	0x3fddd5a7	1.7330827
81	0x3fc22163	1.5166439
82	0x3ce96f0e	0.028495338
83	0x403aa7f8	2.916502
84	0x3d95bf1d	0.073118426
85	0x3ee1a2b8	0.44069457
86	0x409eab31	4.9583974
87	0x3e08eae8	0.1337086
88	0x3cac60f5	0.021042326
89	0x3ce4216d	0.02784797
90	0x3f2a9f25	0.66649085
91	0x3fc860e6	1.5654571
92	0x40304ca1	2.754677
93	0x3f6184bf	0.8809318
94	0x4027657b	2.6155689
95	0x3e7296aa	0.23690286
96	0x3e02370d	0.12716313
97	0x3d953068	0.072846234
98	0x4037cc03	2.871827
99	0x3ff48951	1.9104406
100	0x407ac190	3.918064
101	0x3cebebcb	0.028798958
102	0x3e2b342b	0.16719119
103	0x402eb36c	2.729701
104	0x3d88922c	0.06668505
105	0x3eb15a08	0.34639
106	0x3ede258f	0.4338803
107	0x3ffa82ad	1.9571129
108	0x3f808468	1.0040407
109	0x3f9e837a	1.2383873
110	0x3e2fb0d8	0.17157304
111	0x3fbc9a99	1.473468
112	0x3e0149b7	0.12625776
113	0x3f8fc8cf	1.1233157
114	0x4017c30f	2.3712804
115	0x3fe2e010	1.7724628
116	0x3ee50b06	0.44734973
117	0x3d38c129	0.045106087
118	0x400108de	2.0161662
119	0x3f068412	0.52545273
120	0x3f2a004a	0.6640669
121	0x401f5eac	2.4901533
122	0x3d1159dd	0.03548609
123	0x3d210d82	0.039319523
124	0x3e34e94c	0.1766712
125	0x3e153f57	0.14574943
126	0x3ea34e79	0.31895807
127	0x40a7e187	5.24628

module.layers.3.weight f4 [64, 128]
0	0xbe48e792	-0.19619587
1	0xbdfe3b7d	-0.1241369
2	0x3c897885	0.016781101
3	0xbe8b5d2c	-0.27219522
4	0xbe5384db	-0.20656149
5	0xbbe562d1	-0.007000305
6	0xbf0fc386	-0.5615772
7	0x3e8c46d7	0.27397797
8	0xbd1a4d0d	-0.037671138
9	0xbe813d2b	-0.2524198
10	0x3d671d0c	0.056424186
11	0x3c9e99d2	0.019360457
12	0x3e7caea9	0.24676003
13	0xbeb1edee	-0.34751838
14	0x3d8f3721	0.06992937
15	0x3ea4946b	0.32144484
16	0x3dea1f01	0.11431695
17	0x3db6d007	0.08926397
18	0x3df6bd1a	0.12047787
19	0x3e80f0b9	0.25183657
20	0x3ea39001	0.31945804
21	0x3e8ceeca	0.27525932
22	0x3e83344d	0.2562584
23	0xbf247ba7	-0.6425118
24	0xbf280174	-0.6562722
25	0x3ece7126	0.403207
26	0xbed6eca5	-0.4197742
27	0x3f5c5de2	0.86080754
28	0xbdab26b7	-0.08356994
29	0x3ea0e12b	0.3142179
30	0x3dfe1389	0.1240607
31	0xbe7fbc6f	-0.24974225
32	0x3f19879d	0.59972554
33	0x3e628ec0	0.22124767
34	0x3e7051a0	0.23468637
35	0xbefc17a4	-0.49236786
36	0xbecfad58	-0.40561938
37	0x3e97efef	0.29675242
38	0xbe523788	-0.20528996
39	0xbd8b33c9	-0.067969866
40	0xbe44761b	-0.19185679
41	0x3d5a89d5	0.053354103
42	0xbe59d46b	-0.21272437
43	0x3f31c98b	0.69448155
44	0x3df7127c	0.120640725
45	0x3f29b681	0.66294104
46	0xbd447c29	-0.04796997
47	0x3ec8f0a9	0.3924611
48	0x3e8526c9	0.26006153
49	0x3e3b9bdf	0.18321179
50	0x3f3c5ea5	0.73581916
51	0xbeefb244	-0.46815693
52	0x3cf4c393	0.029878413
53	0xbe7aa31e	-0.24476287
54	0xbe1102d1	-0.1416123
55	0x3ddf1f52	0.10894646
56	0x3e7144d2	0.23561409
57	0xbdfe27f9	-0.12409968
58	0x3edb79d8	0.42866397
59	0x3e10acd3	0.14128427
60	0xbe385088	-0.1799947
61	0xbed32ecd	-0.41246644
62	0x3ddfe9a8	0.10933238
63	0xbf0cb953	-0.5497028
64	0xbd31a3a3	-0.043368947
65	0x3eac00e1	0.3359442
66	0xbec4e12d	-0.38453045
67	0xbdfcef7c	-0.123503655
68	0xbe126a21	-0.14298297
69	0x3e3d84f8	0.18507755
70	0xbe3a16d1	-0.18172766
71	0xbe148514	-0.1450389
72	0x3ebaabf3	0.36459312
73	0x3e11424b	0.14185445
74	0xbe4394ec	-0.19099778
75	0xbec8f053	-0.39245853
76	0xbeb15f30	-0.34642935
77	0x3ed1fd68	0.41013646
78	0x3e1188ef	0.14212392
79	0x3d8243c5	0.06360582
80	0xbdb80be2	-0.089866415
81	0x3ecb1b75	0.39669386
82	0x3ed0c688	0.40776467
83	0xbdefdb82	-0.1171179
84	0x3f138684	0.5762713
85	0xbe55126e	-0.20807812
86	0xbd81fe8b	-0.06347378
87	0x3f156fa8	0.583735
88	0x3f2fbe9f	0.6865024
89	0xbe736a98	-0.23771131
90	0x3e0c66b8	0.13711059
91	0xbda646ff	-0.0811901
92	0x3c085e67	0.0083232885
93	0x3e61a1c8	0.22034371
94	0xbedeece2	-0.43540102
95	0x3eac8a15	0.33699098
96	0xbea885e3	-0.32914647
97	0xbe48d4a9	-0.19612373
98	0xbd5676c7	-0.05235937
99	0xbea7ac0a	-0.32748443
100	0xbde94edb	-0.113919936
101	0x3ef507af	0.47857425
102	0xbf74a5e7	-0.95565647
103	0xbe9869ac	-0.2976812
104	0xbe4e5be8	-0.20152247
105	0xbdcced24	-0.100061685
106	0x3e81859a	0.25297242
107	0xbda7729e	-0.08176158
108	0xbe3d6f10	-0.18499398
109	0xbe5bbfd5	-0.21459897
110	0xbe4c092a	-0.19925371
111	0xbd602c27	-0.054729607
112	0x3ef4ede1	0.47837737
113	0xbec79290	-0.38979006
114	0xbeae1363	-0.33999166
115	0xbebd869e	-0.37016767
116	0x3f01b41b	0.50665444
117	0x3ea069d6	0.31330746
118	0xbeddda06	-0.433304
119	0xbf14ff71	-0.5820227
120	0xbea01757	-0.31267807
121	0x3f36d3ec	0.7141712
122	0x3c9d2247	0.019181384
123	0xbd4c135c	-0.04982315
124	0x3e8348ea	0.25641567
125	0x3e568b90	0.20951676
126	0x3f02598f	0.50917906
127	0xbeb558a2	-0.35419184
128	0x3f1dd551	0.6165362
129	0x3f014438	0.5049472
130	0x3ea6e75a	0.32598382
131	0xbe0b03c1	-0.13575651
132	0xbe8f3499	-0.27969816
133	0x3e267f2a	0.16259447
134	0xbe04f9a0	-0.1298585
135	0x3e2dfb95	0.16990502
136	0x3e5b5f01	0.2142296
137	0xbe4b7c72	-0.19871691
138	0xbed0898a	-0.40729934
139	0x3d309f14	0.04312046
140	0x3eac230f	0.33620498
141	0xbe2cd36c	-0.16877526
142	0x3ecce216	0.4001624
143	0xbd252504	-0.040318504
144	0x3d3b713e	0.045762293
145	0x3d9e2888	0.077225745
146	0x3e6c5ed7	0.23083054
147	0xbe7b7848	-0.24557602
148	0x3e0c7dd5	0.13719876
149	0x3db48422	0.08814265
150	0x3def5478	0.11686033
151	0xbd0077e7	-0.031364348
152	0xbec735ae	-0.38908142
153	0x3e5c7107	0.21527492
154	0xbea0c762	-0.31402117
155	0x3ef7ab15	0.48372713
156	0x3f1a1a30	0.6019621
157	0x3e9a6fcd	0.30163422
158	0x3f006862	0.50159276
159	0xbd219664	-0.039450064
160	0x3e8b098a	0.27155715
161	0x3f165a4f	0.5873155
162	0x3edfba4c	0.4369682
163	0xbe2c1bbc	-0.16807455
164	0xbec98fe2	-0.39367586
165	0x3effe4cd	0.4997925
166	0xbe1aa5e8	-0.1510235
167	0x3cd01805	0.025402078
168	0xbe3a0a06	-0.18167886
169	0x3f261d3e	0.6488837
170	0xbe75d8ab	-0.24008434
171	0x3ea5722d	0.32313672
172	0x3e4c4e5b	0.19951765
173	0xbd88137e	-0.06644343
174	0xbd22a953	-0.03971226
175	0x3e1ca9e4	0.15299183
176	0xbe8785da	-0.26469308
177	0xbdbad3b8	-0.091224134
178	0x3e3741de	0.1789622
179	0xbef7104a	-0.48254615
180	0xbe95e80a	-0.29278594
181	0xbf0a4f6d	-0.54027444
182	0x3f2052a8	0.62626123
183	0x3f030433	0.5117828
184	0x3fa2a74a	1.2707303
185	0x3d216247	0.039400365
186	0x3e2f09c2	0.17093566
187	0x3eb10ef2	0.34581715
188	0xbefab0ef	-0.48963115
189	0x3dc40fe1	0.09573341
190	0x3eadc0f4	0.33936274
191	0xbf2a7710	-0.66587925
192	0xbe161245	-0.14655407
193	0x3f88306a	1.0639775
194	0x3dc7fe3a	0.09765287
195	0xbeca66e1	-0.39531615
196	0x3f257147	0.6462597
197	0x3e6a75b8	0.22896469
198	0x3f0e9afb	0.5570523
199	0xbe918b91	-0.28426793
200	0xbd6a04b2	-0.057133384
201	0x3effcfb3	0.4996315
202	0x3f1b5fca	0.6069304
203	0x3eefaef2	0.4681316
204	0xbea74673	-0.32670936
205	0x3f13da5f	0.5775508
206	0x3d4e5799	0.05037651
207	0xbdc138f4	-0.09434691
208	0x3eaa92d4	0.33315146
209	0x3f49956b	0.7874362
210	0x3e1eaac1	0.15494825
211	0x3ec550e4	0.38538277
212	0xbebe9b0a	-0.3722766
213	0xbc656721	-0.014001639
214	0x3f1056a4	0.56382203
215	0x3f19cea9	0.60080963
216	0x3e8617af	0.26189944
217	0xbdeb89a4	-0.11500862
218	0x3dd0e713	0.10200324
219	0x3f21a11b	0.6313645
220	0x3f1760f4	0.59132314
221	0xbdad9b68	-0.08476907
222	0xbeff4497	-0.49857017
223	0x3d858f99	0.0652153
224	0xbe5ad260	-0.21369314
225	0xbe7ed335	-0.24885257
226	0x3e3552c2	0.17707351
227	0xbe460e64	-0.19341427
228	0x3ec29047	0.380007
229	0x3e7565c6	0.23964605
230	0xbea845ce	-0.32865757
231	0xbe2dbf2f	-0.16967462
232	0x3efd3148	0.4945166
233	0x3f51e97a	0.8199688
234	0x3d3874c5	0.045033235
235	0x3d20a8d9	0.039223526
236	0x3f3cb746	0.73717153
237	0xbf0f97b2	-0.56090844
238	0xbcdb689a	-0.026783276
239	0x3f0b7cb9	0.54487187
240	0xbda98b31	-0.08278502
241	0xbe39e7a4	-0.1815477
242	0x3e79e10d	0.24402256
243	0x3eddcea5	0.4332172
244	0x3e1e6740	0.15469074
245	0xbe910873	-0.2832676
246	0xbf005171	-0.5012427
247	0xbf4e27b1	-0.80529314
248	0xbef27035	-0.47351232
249	0x3d52d6d4	0.051474407
250	0x3e32066f	0.17385267
251	0x3dcb3694	0.09922519
252	0xbe14eb4c	-0.14542884
253	0xbde7b605	-0.11314014
254	0xbe6ca4e7	-0.2310978
255	0xbec4df54	-0.38451636

module.layers.3.bias f4 [64]
0	0x3ce2251d	0.027605588
1	0x3d347b40	0.044062853
2	0x3ccea1d3	0.025223648
3	0xbc8ea61b	-0.01741319
4	0x3a2a2eea	0.0006491976
5	0x3d5cbb16	0.053889357
6	0xbd0d42b9	-0.03448746
7	0xbcf420dc	-0.029800825
8	0x3c23befc	0.009994265
9	0xbd36c472	-0.04462094
10	0xbc8c4ac7	-0.0171255
11	0xbd9f42ec	-0.07776436
12	0xbda965fd	-0.08271406
13	0x3d81398a	0.06309803
14	0xbbfbd8fc	-0.0076857787
15	0x3d5649d6	0.05231651
16	0x3cc75ea1	0.024337115
17	0x3cfd0da2	0.03089029
18	0xbc1cd88c	-0.009573113
19	0xbd706217	-0.058687296
20	0xbd9d2b31	-0.07674254
21	0x3d01225e	0.031526916
22	0xbda781ab	-0.08179029
23	0x3d8d0dd6	0.068874046
24	0x3c8aa7ea	0.01692577
25	0xbd4c9527	-0.04994693
26	0xbda7ee95	-0.08199803
27	0xbd89b38a	-0.067236975
28	0x3d7a9fcf	0.06118756
29	0x3d5cde4e	0.053922944
30	0xbd573609	-0.052541766
31	0x3d46c920	0.04853165
32	0x3d4e0e50	0.05030662
33	0x3bd5748e	0.0065141385
34	0xbda4587b	-0.08024689
35	0x3c2a3872	0.010389434
36	0x3d8e0e11	0.06936277
37	0x3c401e98	0.011726044
38	0x3cf8e9ea	0.030384976
39	0xbd8145b1	-0.06312121
40	0xbd66fe01	-0.05639458
41	0x3cd07c67	0.025449945
42	0xbda0336f	-0.0782231
43	0x3d85da9e	0.065358385
44	0x3d9ef643	0.077618144
45	0xbd7c8b70	-0.061656415
46	0xbd7212d6	-0.059099995
47	0xbd4bfce8	-0.049801737
48	0x3b504472	0.0031779078
49	0x3cbc802b	0.023010334
50	0x3d9e0377	0.077155046
51	0xbc8c9606	-0.01716138
52	0xbceb64db	-0.028734615
53	0x3d81d230	0.06338918
54	0xbd5c4bbc	-0.053783163
55	0xbd93f6b8	-0.07224792
56	0xbd1717e0	-0.036888003
57	0xbbb301cb	-0.00546286
58	0xbd8079c6	-0.062732264
59	0x3d1be5d5	0.03806098
60	0xbd9d61d0	-0.07684672
61	0xbcdfed65	-0.027334878
62	0x3d947934	0.0724968
63	0xbd6e5a9d	-0.058191884

module.layers.4.weight f4 [64]
0	0x3ec8d6a4	0.39226258
1	0x3f31b7e8	0.69421244
2	0x3f982cd7	1.1888684
3	0x3f9fb9ff	1.2478637
4	0x3f2b283f	0.66858286
5	0x3f351afd	0.70744306
6	0x3f1870df	0.5954723
7	0x3f414880	0.7550125
8	0x3f66ff79	0.9023357
9	0x3f03556e	0.5130223
10	0x3f0e2b73	0.5553505
11	0x3f7e7059	0.9939018
12	0x3f33231a	0.69975436
13	0x3efdbac2	0.49556547
14	0x3ef3179d	0.47478953
15	0x3f2fed79	0.6872173
16	0x3f89ce86	1.0766151
17	0x3f62dfd6	0.88622797
18	0x3eab3644	0.3343984
19	0x3efde56d	0.495891
20	0x3f30554e	0.68880165
21	0x3f4b6e72	0.794654
22	0x3f839b60	1.0281792
23	0x3fa2bdc2	1.271416
24	0x3f24615a	0.64211047
25	0x3eb3389a	0.3500412
26	0x3ecfe9e2	0.40608126
27	0x3f91d91d	1.1394383
28	0x3fe32505	1.7745672
29	0x3f2deff1	0.67944247
30	0x3f81258d	1.0089585
31	0x3f35af84	0.7097094
32	0x3f8b62bd	1.0889508
33	0x3f6f66d4	0.9351628
34	0x3f2339ac	0.63759875
35	0x3f9c9427	1.2232713
36	0x3edbe6a1	0.42949393
37	0x3f5f7961	0.87294585
38	0x3f2572da	0.64628375
39	0x3f3624e8	0.71150064
40	0x3f7adc14	0.9799206
41	0x3ef66a5b	0.48128018
42	0x3f34fa9c	0.706949
43	0x3f044f3f	0.5168342
44	0x3fd49da1	1.6610605
45	0x3fa029e2	1.2512782
46	0x3edbee62	0.4295531
47	0x3f8a8298	1.0821104
48	0x3f86b8ce	1.0525148
49	0x3f166c99	0.58759457
50	0x3f0cea04	0.5504458
51	0x3f764621	0.9620076
52	0x3ec3fd6f	0.38279292
53	0x3f0eb1f8	0.5574031
54	0x3f1eda53	0.62051886
55	0x3f35a842	0.70959866
56	0x3ec8ecfb	0.39243302
57	0x3f1d9dd5	0.6156896
58	0x3f8008bf	1.0002669
59	0x3fd0478b	1.6271833
60	0x3ef4493a	0.47712117
61	0x3f62bd0a	0.885697
62	0x3f38bb64	0.72160935
63	0x3fd275bd	1.6442181

module.layers.4.bias f4 [64]
0	0xbf12ef92	-0.57396805
1	0xbedc7884	-0.43060696
2	0xbe8fbeba	-0.280752
3	0xbec6ba4c	-0.38814008
4	0xbf2014c4	-0.62531686
5	0xbf520963	-0.82045573
6	0xbf302172	-0.68801033
7	0xbea40687	-0.3203623
8	0xbf30d02f	-0.6906766
9	0xbec934a7	-0.39297983
10	0xbefd705b	-0.49499783
11	0xbf1bba32	-0.60830986
12	0xbf01bf4d	-0.50682527
13	0xbebda780	-0.37041855
14	0xbeb84349	-0.35988835
15	0xbf056b4a	-0.52116835
16	0xbe948adc	-0.2901219
17	0xbe6777b7	-0.22604261
18	0xbf43e7b2	-0.76525414
19	0xbec10d35	-0.3770539
20	0xbe81153e	-0.2521152
21	0xbf0b18ca	-0.543347
22	0xbf2984de	-0.66218364
23	0xbef31e49	-0.47484043
24	0xbf13d5da	-0.57748187
25	0xbf126470	-0.57184505
26	0xbe8acd16	-0.27109593
27	0xbedb6692	-0.42851692
28	0x3e58aaa4	0.21158844
29	0xbeafcdcc	-0.34336698
30	0xbea33d08	-0.318825
31	0xbf154b62	-0.5831815
32	0xbef06a9b	-0.46956334
33	0xbe955cf6	-0.29172486
34	0xbf079170	-0.52956295
35	0xbed1ff3c	-0.4101504
36	0xbf107b4f	-0.56438154
37	0xbede843a	-0.43460256
38	0xbf03353a	-0.5125309
39	0xbeee7050	-0.46570063
40	0xbe5e0531	-0.21681668
41	0xbef31f0b	-0.4748462
42	0xbf327285	-0.6970599
43	0xbeec6837	-0.4617326
44	0xbeae8d18	-0.3409202
45	0x3f745868	0.954474
46	0xbf18bb68	-0.5966096
47	0xbe15f530	-0.14644313
48	0xbecbfc85	-0.39841095
49	0xbeaf0862	-0.34186083
50	0xbf565cad	-0.8373516
51	0xbef26686	-0.47343844
52	0xbf11252f	-0.5669736
53	0xbeeb7402	-0.45986944
54	0xbedaa718	-0.42705607
55	0xbde6380c	-0.11241159
56	0xbf3b88c4	-0.7325556
57	0xbef29ce1	-0.47385314
58	0xbf0b50eb	-0.54420346
59	0x3e482cad	0.19548292
60	0xbf14ba3a	-0.5809666
61	0xbea749d9	-0.3267353
62	0xbea8e18a	-0.32984573
63	0xbcb36583	-0.02189899

module.layers.4.running_mean f4 [64]
0	0x3fb755e1	1.4323083
1	0x4081bbfe	4.0541983
2	0xbcff0821	-0.031131806
3	0xc0139743	-2.3061073
4	0x4116024b	9.37556
5	0x411be2d5	9.742879
6	0xc09028eb	-4.504995
7	0xc0da9655	-6.830851
8	0x4061c61b	3.5277164
9	0xc04bfb29	-3.1872046
10	0x40f64435	7.695826
11	0x3f8f52c6	1.1197135
12	0x3f2572bb	0.6462819
13	0x40dd823d	6.922148
14	0xbfbe97c0	-1.489006
15	0x40629ce8	3.5408268
16	0xc0150e7c	-2.329009
17	0xc0be0f00	-5.939331
18	0xbebd315c	-0.3695172
19	0xc031cb52	-2.7780347
20	0x403e5c75	2.9743931
21	0xbf45bdb2	-0.7724258
22	0xbf0bbf4d	-0.54588777
23	0x41007cd9	8.03048
24	0xbfdcd85e	-1.725353
25	0x40e891db	7.2678046
26	0x3f970c2b	1.1800588
27	0x40ec64da	7.387311
28	0xbfe73eea	-1.8066075
29	0x401da28b	2.4630458
30	0x40e862fd	7.2620835
31	0xc014b322	-2.3234334
32	0xc0132919	-2.2993834
33	0x40632bcd	3.5495484
34	0x41106d47	9.026679
35	0x3f30494a	0.6886183
36	0x406be6d8	3.6859646
37	0xbfd81542	-1.6881487
38	0x40d74d3f	6.7281795
39	0x403d3e30	2.9569206
40	0x4002bb6e	2.0426898
41	0xbf9300f4	-1.1484666
42	0xbee7eab1	-0.45296243
43	0xc0420b9b	-3.0319583
44	0x3ecf8a2f	0.40535113
45	0x40a0eb89	5.028752
46	0x3f76039a	0.96099246
47	0x409b65d2	4.856179
48	0x4104828b	8.281871
49	0x409a5a41	4.8235173
50	0x40b0920e	5.517829
51	0xc021d7e0	-2.528801
52	0x40e68b54	7.204508
53	0xc03d1224	-2.9542322
54	0xbf24bd9a	-0.6435181
55	0x408e72cb	4.451513
56	0x40a6e466	5.2153807
57	0x3fc2fe92	1.5233939
58	0xbe0f4046	-0.13989362
59	0x4056e2af	3.3575857
60	0x4033ef55	2.8114827
61	0xbf435496	-0.7630094
62	0x40ce0681	6.438294
63	0xc02a7670	-2.6634789

module.layers.4.running_var f4 [64]
0	0x42033a55	32.806965
1	0x424ac59f	50.69299
2	0x426508b8	57.258514
3	0x420c5d5a	35.091164
4	0x4104a315	8.289815
5	0x410d24e9	8.821511
6	0x4261b740	56.428955
7	0x41330ded	11.1909
8	0x40e4f0ea	7.1544085
9	0x4021fc88	2.5310383
10	0x41ad8137	21.688093
11	0x42220cf8	40.512665
12	0x42a88115	84.25211
13	0x410486bd	8.282895
14	0x4066a53e	3.6038356
15	0x4201ed4a	32.481728
16	0x40b2d4bc	5.5884686
17	0x4129dad4	10.615925
18	0x412c8943	10.783511
19	0x40ed3674	7.412897
20	0x4180c9fb	16.098623
21	0x428a9e28	69.3089
22	0x42319a4f	44.400692
23	0x420eee97	35.732998
24	0x426486fe	57.13183
25	0x40b99305	5.7991967
26	0x40882548	4.254551
27	0x421e92be	39.643303
28	0x415c6583	13.774783
29	0x41262153	10.383136
30	0x419afa69	19.37227
31	0x41684af8	14.518303
32	0x40124533	2.2854736
33	0x418baf03	17.460455
34	0x412ca58d	10.790418
35	0x419124c9	18.142962
36	0x4025fa5c	2.5934057
37	0x4221e5d0	40.474426
38	0x40dcc14c	6.898596
39	0x406bf618	3.6868954
40	0x40d3ab78	6.6146812
41	0x3f8eb296	1.114825
42	0x41ad124b	21.633932
43	0x408d7012	4.4199305
44	0x420ebe22	35.685677
45	0x41257de4	10.343235
46	0x41047d30	8.280563
47	0x418696da	16.823658
48	0x420b0da0	34.763306
49	0x4146c3cb	12.422801
50	0x40dcf928	6.9054146
51	0x427f070e	63.75689
52	0x418a63e7	17.29878
53	0x4219c0fa	38.438454
54	0x427479db	61.119
55	0x411c9aa3	9.787753
56	0x40ad05f2	5.4069757
57	0x427b01e0	62.75183
58	0x41f5f673	30.745337
59	0x415e4a9d	13.893216
60	0x400e1b00	2.220398
61	0x422b4d67	42.82559
62	0x4168c176	14.547232
63	0x40e2be78	7.0857506

module.layers.6.weight f4 [48, 64]
0	0x3ef1d131	0.47229913
1	0x3ec263a0	0.37966633
2	0x3ef38707	0.47563955
3	0x3f082c27	0.5319237
4	0xbeb98cf7	-0.3624036
5	0xbf16f7ae	-0.5897168
6	0x3ea67b38	0.32515883
7	0xbf400121	-0.7500172
8	0xbf0ffcfa	-0.56245387
9	0xbe748224	-0.2387777
10	0xbf4e35a0	-0.80550575
11	0x3edc8c8f	0.43075988
12	0x3e238834	0.15969926
13	0xbc78e314	-0.015190858
14	0xbf19ccf6	-0.6007837
15	0xbe30ddcb	-0.17272107
16	0xbf893b49	-1.0721217
17	0xbf449768	-0.7679353
18	0x3f006627	0.5015587
19	0xbf0adf4c	-0.54246974
20	0xbc105dd8	-0.008811437
21	0x3efaa618	0.48954844
22	0x3eb09f2a	0.34496433
23	0xbf182bef	-0.5944204
24	0x3e2db147	0.16962157
25	0xbe8b0661	-0.27153304
26	0xbf30166d	-0.6878422
27	0xbf54e078	-0.8315501
28	0x3ddae4ab	0.10688146
29	0xbc5a77c4	-0.013334218
30	0x3e530727	0.20608197
31	0xbe81c1c3	-0.2534314
32	0xbd8059f9	-0.06267161
33	0xbcd02585	-0.025408516
34	0xbee51b89	-0.4474757
35	0x3f394d6d	0.7238377
36	0xbccf503d	-0.025306815
37	0x3e65611c	0.22400326
38	0xbedf181c	-0.43573081
39	0x3df561b9	0.1198153
40	0xbe7e3b8e	-0.24827406
41	0xbf377441	-0.71661764
42	0x3ee364a6	0.44412726
43	0x3f18c617	0.5967726
44	0x3f0ae89c	0.54261184
45	0xbdfb7f56	-0.12280147
46	0x3ea55d76	0.32297868
47	0xbe0b9b53	-0.1363347
48	0xbf5b0c9d	-0.8556612
49	0xbf4d27ef	-0.8013906
50	0x3e63617b	0.22205155
51	0x3e93a0af	0.2883353
52	0x3dccc3a0	0.0999825
53	0x3e8815a9	0.26579025
54	0x3e17391a	0.14767876
55	0xbd8e533d	-0.0694947
56	0x3e98ac0d	0.29818764
57	0x3dc29732	0.095014945
58	0x3dd86855	0.10566775
59	0x3db3910a	0.087678984
60	0x3d672b1a	0.05643759
61	0x3ea6420b	0.32472262
62	0x3ef5535b	0.47915158
63	0x3ec57734	0.38567507
64	0x3f148c36	0.58026445
65	0x3f195769	0.59899
66	0x3ea509cf	0.32234046
67	0x3f012c6a	0.50458395
68	0xbf5265df	-0.8218669
69	0xbf01475a	-0.504995
70	0xbdb639c3	-0.08897736
71	0xbee3e135	-0.44507757
72	0xbeda834f	-0.42678306
73	0xbd319cd1	-0.043362442
74	0xbf5bd8c9	-0.8587766
75	0x3ebe4356	0.37160748
76	0x3e6d5fc2	0.2318106
77	0x3e571f90	0.21008134
78	0xbec12192	-0.37720925
79	0x3dbc5981	0.09196759
80	0xbf3eb95c	-0.74501586
81	0xbe922762	-0.28545672
82	0x3e87653c	0.26444423
83	0xbf16724d	-0.5876816
84	0xbe649fda	-0.22326604
85	0x3e66f807	0.22555552
86	0x3e55d749	0.20882906
87	0xbe87438f	-0.2641873
88	0x3e7060d6	0.2347444
89	0xbf118472	-0.5684272
90	0xbf4c8454	-0.79889417
91	0xbee20985	-0.44147888
92	0xbde32040	-0.110901356
93	0xbe34d21e	-0.17658278
94	0x3e77bfb6	0.24194226
95	0xbdd75902	-0.10515024
96	0x3e5b8c40	0.2144022
97	0xbd321d1d	-0.043484796
98	0xbedb4f3a	-0.42833883
99	0x3f52f96d	0.82411844
100	0xbd9f9b61	-0.07793308
101	0x3e9d147c	0.3067969
102	0xbe1b1c19	-0.15147437
103	0x3e42dabf	0.19028758
104	0xbeb9dc01	-0.36300662
105	0x3c09f171	0.0084193805
106	0x3edf59e7	0.43623278
107	0x3dd81d72	0.10552491
108	0x3f2db8b5	0.67859966
109	0xbe9346f5	-0.28765073
110	0x3f1727bc	0.59045005
111	0xbe4d1c59	-0.20030345
112	0xbed98c39	-0.42489794
113	0xbf418b6b	-0.7560336
114	0x3dcdfce7	0.10058003
115	0x3e9bcbca	0.30428916
116	0xbcbce1be	-0.023056861
117	0x3e4f216a	0.2022759
118	0x3e762ebf	0.2404127
119	0xbe93b22a	-0.28846866
120	0x3ebdb221	0.37049964
121	0x3e470a58	0.1943754
122	0x3e98f9ce	0.29878086
123	0xbbe84bc1	-0.0070891087
124	0x3caa09ad	0.020756567
125	0x3ee671b6	0.4500863
126	0x3f18a206	0.5962223
127	0x3e880b28	0.26571012
128	0x3e250055	0.16113408
129	0xbcafe84c	-0.021473072
130	0x3e9444d4	0.28958762
131	0x3effe362	0.49978167
132	0xbf126e2d	-0.57199365
133	0xbef7a23e	-0.48365968
134	0x3d3b96f5	0.04579826
135	0xbf2b26a7	-0.66855854
136	0xbeefedbd	-0.46861067
137	0xbebc0f71	-0.3673053
138	0xbeeb2036	-0.45923012
139	0x3e603197	0.21893917
140	0x3e338dbc	0.17534536
141	0xbe3057e9	-0.17221035
142	0xbeaf7477	-0.34268543
143	0x3de0dccf	0.10979616
144	0xbf09f1a7	-0.5388436
145	0xbe8471f5	-0.25868192
146	0xba6b5a17	-0.0008977963
147	0xbea8f6d3	-0.33000812
148	0x3dbcdcf1	0.09221829
149	0x3e93e5ff	0.2888641
150	0x3eee6903	0.46564493
151	0xbeb2ff1c	-0.34960258
152	0xbe40a681	-0.18813516
153	0xbe5aa690	-0.21352601
154	0xbeb3b5eb	-0.3509973
155	0xbece3b60	-0.40279675
156	0x3dc086bb	0.09400698
157	0x3ddfa983	0.10921004
158	0xbe13870d	-0.14406987
159	0xbe8a9c6f	-0.27072474
160	0xbda3c463	-0.07996442
161	0x3e8be604	0.27323925
162	0xbe8b3b70	-0.27193785
163	0x3ee490fd	0.44641867
164	0x3e23e4e3	0.16005282
165	0x3da15eca	0.07879408
166	0xbe788791	-0.24270464
167	0x3e534757	0.20632683
168	0xbd4a6dc7	-0.049421098
169	0xbe7cba09	-0.24680342
170	0x3f0d5b0a	0.5521704
171	0x3e6fab1b	0.23405115
172	0x3f05b693	0.5223171
173	0xbdb3ffe0	-0.08789039
174	0x3d7ab0b2	0.061203666
175	0x3e0cc638	0.1374749
176	0xbebc7e96	-0.36815327
177	0xbe901de5	-0.28147808
178	0x3ecf8e32	0.40538174
179	0x3ea5a571	0.32352784
180	0xbdd76463	-0.10517194
181	0x3ce8883f	0.02838528
182	0x3e95a9b7	0.29231045
183	0x3bccc76c	0.006249359
184	0xbd691182	-0.056901462
185	0xbe14a5c6	-0.14516363
186	0x3e3cc13b	0.18433087
187	0xbe0066cf	-0.12539218
188	0x3e6f1db6	0.23351178
189	0x3e80dedd	0.2517003
190	0x3ce61310	0.028085262
191	0x3bddd629	0.0067699146
192	0x3f0ca074	0.5493233
193	0x3effe3ae	0.49978393
194	0x3e9da125	0.30787006
195	0x3ed797eb	0.42108092
196	0xbefa95f3	-0.48942527
197	0xbe73f303	-0.2382317
198	0x3dbc53f8	0.09195703
199	0xbebc6639	-0.3679674
200	0xbeaf64db	-0.34256634
201	0x3d09c266	0.03363266
202	0xbf1b9ad4	-0.60783124
203	0x3e830ccb	0.25595698
204	0x3e53d028	0.20684874
205	0x3e919fe0	0.28442287
206	0xbeaa0339	-0.33205584
207	0xbdf914c5	-0.121621646
208	0xbf0a8fcc	-0.54125667
209	0xbeb13b33	-0.34615478
210	0x3ed15ffb	0.4089354
211	0xbd490de2	-0.049085505
212	0xbe121a76	-0.14267907
213	0x3ebea978	0.3723867
214	0x3dd14c4b	0.1021963
215	0xbdd9ed0e	-0.10640918
216	0x3e3e8eb7	0.18609129
217	0xbeac3a79	-0.3363836
218	0xbeaf58b1	-0.34247354
219	0xbe905552	-0.28190094
220	0x3a3d15d1	0.0007213029
221	0xbd934b6b	-0.07192119
222	0x3e7dc443	0.24781899
223	0x3d30a60b	0.0431271
224	0x3e8d1eea	0.27562648
225	0xbca757c5	-0.020427594
226	0xbee06f89	-0.43835095
227	0x3f0e2b4c	0.55534816
228	0x3d6b46a6	0.057440422
229	0x3eb16128	0.34644437
230	0xbdc40975	-0.09572116
231	0x3de95ad8	0.1139428
232	0xbea34b66	-0.31893462
233	0xbe59c479	-0.21266355
234	0x3eaadac0	0.33370018
235	0x3ec5d556	0.38639325
236	0x3f2b58bb	0.66932267
237	0xbec691a2	-0.38782984
238	0x3e8648c7	0.262274
239	0x3d66c089	0.05633596
240	0xbe27fd72	-0.16405275
241	0xbf2867d8	-0.65783453
242	0xbdbd4b61	-0.09242893
243	0x3e349cfc	0.1763801
244	0xbe0e6636	-0.13906178
245	0x3e4c8975	0.1997431
246	0x3ea0ed02	0.31430823
247	0xbe0fbef2	-0.14037684
248	0x3d3f6fd4	0.046737507
249	0x3e89dceb	0.2692636
250	0x3e4767d6	0.19473204
251	0xbd08c3c9	-0.03338984
252	0xbd6cfa68	-0.057855994
253	0x3f296374	0.6616738
254	0x3ecbfe52	0.39842469
255	0x3eb9a856	0.36261243

module.layers.6.bias f4 [48]
0	0x3ddd269f	0.10798382
1	0xbda66298	-0.08124274
2	0xbde81bce	-0.11333428
3	0x3da923c7	0.08258777
4	0x3c45f182	0.012081506
5	0x3b3994a7	0.0028317363
6	0x3b09e7f4	0.0021042796
7	0xbd9d7023	-0.07687404
8	0x3c673c93	0.014113563
9	0x3dcba313	0.09943213
10	0x3d1ddf04	0.038542762
11	0xbda99758	-0.0828082
12	0x3dc97ef6	0.09838669
13	0x3dc69454	0.0969626
14	0x3d2ac0a3	0.04168762
15	0x3d8d3f3a	0.06896825
16	0x3df2b382	0.11850645
17	0xbda0ec81	-0.078576095
18	0xbd846c95	-0.06466023
19	0x3da1e15e	0.079043135
20	0xbdc37643	-0.09544041
21	0x3c3a97e5	0.011388754
22	0x3d838a1f	0.06422829
23	0xbc528404	-0.012848858
24	0x3d8f11f3	0.069858454
25	0x3c054828	0.008134879
26	0x3dd1ed70	0.10250366
27	0xbd10be61	-0.03533781
28	0x3e21314d	0.15741463
29	0xbc8f6c32	-0.017507646
30	0xbdb9d0b2	-0.090730086
31	0xbdbd1f9b	-0.09234544
32	0xbd926d7f	-0.07149791
33	0xbd78a459	-0.06070361
34	0xbca0ed5f	-0.019644437
35	0x3de0b1bd	0.10971401
36	0xbdae77d2	-0.08518948
37	0xbc6d2c87	-0.014475948
38	0xbde294c5	-0.11063532
39	0x3d8b4a8c	0.06801328
40	0xbd94e905	-0.072710074
41	0xbdadaa4a	-0.08479746
42	0x3d02d60d	0.031942416
43	0xbd1a90c8	-0.03773573
44	0x3d45bc42	0.04827524
45	0xbb4435fc	-0.0029939404
46	0xbcef78a4	-0.02923233
47	0x3ce4183c	0.027843587

module.layers.7.weight f4 [48]
0	0x3f92ae42	1.1459429
1	0x3fcb53a0	1.5884895
2	0x3f9783da	1.1837113
3	0x400b75e4	2.1790705
4	0x3f17c778	0.5928874
5	0x3e962f44	0.29332936
6	0x3f95218c	1.1650863
7	0x4003af9d	2.0575936
8	0x3f8b41b3	1.0879425
9	0x3ec69455	0.38785043
10	0x3f82157e	1.0162809
11	0x3f8688db	1.0510515
12	0x3f73a78d	0.9517754
13	0x3fd183ce	1.6368349
14	0x4080c948	4.0245705
15	0x3fb8061d	1.4376866
16	0x3f38eb2e	0.72233856
17	0x3faf3f30	1.3691158
18	0x3f103f8d	0.5634697
19	0x3f8d0dc5	1.1019827
20	0x3fb21702	1.3913271
21	0x3f868c53	1.0511574
22	0x3fc2042a	1.5157521
23	0x3f825ad8	1.0183973
24	0x3f804ed7	1.002406
25	0x3ed94b65	0.42440334
26	0x3fd8def9	1.6943046
27	0x3fbf86bd	1.4962994
28	0x3fd87c6b	1.6912969
29	0x3fe5f4b4	1.7965302
30	0x3f04ab44	0.5182383
31	0x3f11c301	0.5693818
32	0x3ef6ccba	0.4820307
33	0x3f7574fe	0.9588164
34	0x3feb5106	1.8384101
35	0x3faa8ee7	1.332486
36	0x3f21ace8	0.6315446
37	0x3f6c1756	0.9222311
38	0x3f50a09a	0.8149506
39	0x3f651355	0.89482623
40	0x3f559f02	0.8344575
41	0x3fcf5b06	1.6199653
42	0x40027240	2.0382233
43	0x3ee8ef1b	0.45494923
44	0x3e33e58a	0.17568031
45	0x3f56b8f9	0.83875996
46	0x3f52b681	0.8230973
47	0x3f6d00c5	0.925793

module.layers.7.bias f4 [48]
0	0xbd456d2e	-0.048199825
1	0x3d03a6dd	0.032141555
2	0x3ecae418	0.39627147
3	0x3e6460f7	0.22302614
4	0x3ea9898d	0.33112755
5	0x3c1ed94e	0.009695364
6	0x3ddbfe38	0.10741848
7	0x3f286fa7	0.6579537
8	0x3d56ba90	0.052424014
9	0xbda2fa29	-0.079578705
10	0x3bd8a2fe	0.006611227
11	0x3c7fca37	0.015612177
12	0xbe417735	-0.1889313
13	0x3df588fa	0.11989017
14	0x3f91162b	1.133489
15	0x3eb0baf5	0.34517637
16	0x3d9f890c	0.077898115
17	0xbe7e44dc	-0.24830955
18	0x3b20f766	0.0024561523
19	0x3e29ad74	0.16570073
20	0x3dd26f70	0.10275161
21	0x3eacf371	0.3377948
22	0xbd469183	-0.048478615
23	0xbd2d5ec1	-0.042326692
24	0xbdadf7d9	-0.08494539
25	0x3ce97b6c	0.028501235
26	0x3ea4b73a	0.3217104
27	0x3e28df17	0.16491352
28	0xbcc84349	-0.024446147
29	0xbe0442de	-0.12916133
30	0x3e599c74	0.21251088
31	0x3e8ca843	0.27472124
32	0x3da4b6dd	0.08042691
33	0x3f0f019b	0.55861825
34	0x3f362827	0.7115502
35	0xba8f60f6	-0.0010938931
36	0x3ea37b4c	0.31930006
37	0xbdd64021	-0.1046145
38	0xbdeeb2d2	-0.11655201
39	0x3ef52b43	0.4788457
40	0xbcb8ec81	-0.022573711
41	0x3df93b51	0.12169517
42	0x3e9ff28a	0.3123973
43	0x3e3a6323	0.1820188
44	0xbdc4c305	-0.096075095
45	0x3e0d4d54	0.1379903
46	0x3f06f94e	0.5272416
47	0x3f0d9d32	0.55317986

module.layers.7.running_mean f4 [48]
0	0xbe64041a	-0.2226719
1	0xbdaefa1d	-0.08543799
2	0xbd96599b	-0.0734131
3	0x3f0e2df2	0.55538857
4	0xbfa3543e	-1.2760084
5	0xbfb70207	-1.4297494
6	0xbf96a25f	-1.1768302
7	0x3e990308	0.29885125
8	0xbeba76f5	-0.36418882
9	0xbf3e9094	-0.7443936
10	0xbeb0510c	-0.34436834
11	0xbfb89d37	-1.4422978
12	0x3e70d3b3	0.23518257
13	0xbfa905a1	-1.3204843
14	0x3e932d77	0.28745624
15	0x3f346521	0.7046681
16	0xbf0dfe65	-0.554663
17	0xbea8e18f	-0.32984588
18	0xc0107042	-2.2568517
19	0x3da9bd4d	0.082880594
20	0xbfaa05e4	-1.3283048
21	0xc027f0b7	-2.624067
22	0x3f03ab21	0.51432997
23	0x3f29c93a	0.6632267
24	0xbf193ade	-0.5985545
25	0xbf9ff5fe	-1.2496946
26	0xbf4eb667	-0.80747074
27	0xbde5bffa	-0.11218257
28	0x3ecca724	0.39971268
29	0xbe761b4c	-0.2403385
30	0x3e39e5fa	0.18154135
31	0x3e9f9df1	0.31175187
32	0xc071078a	-3.7660851
33	0xc07cfa36	-3.9527717
34	0xbfe0aab8	-1.7552099
35	0x3d978a27	0.07399397
36	0x3f1897ed	0.5960682
37	0xbef9688d	-0.48712578
38	0xbe721010	-0.2363894
39	0xc08f92ea	-4.486684
40	0xbf6d47c6	-0.9268764
41	0xbea2f87f	-0.31830212
42	0xbf2a1e8a	-0.6645285
43	0xbfbab046	-1.4585044
44	0xbf1800a1	-0.5937596
45	0xbf97de62	-1.1864741
46	0xc082d78f	-4.0888133
47	0xc08a1e61	-4.3162084

module.layers.7.running_var f4 [48]
0	0x41630f6b	14.191264
1	0x413b5d73	11.710315
2	0x40f6de46	7.714633
3	0x40ffe510	7.9967117
4	0x40eb60c6	7.355563
5	0x404a4aae	3.160808
6	0x41793bc5	15.577092
7	0x40aa5873	5.323297
8	0x41031ab6	8.194021
9	0x3f52e582	0.8238145
10	0x4062b016	3.5419974
11	0x4179e000	15.6171875
12	0x414d062d	12.814008
13	0x41824140	16.28186
14	0x40c8cc28	6.2749214
15	0x40e2313d	7.0685105
16	0x417cffbd	15.812436
17	0x41926203	18.297857
18	0x404e8f64	3.2275019
19	0x413b1a32	11.693895
20	0x3f8dc3f8	1.107543
21	0x4108e891	8.556779
22	0x41267962	10.404634
23	0x40a39bf8	5.112789
24	0x414554bb	12.333186
25	0x407cf198	3.9522457
26	0x4135c09f	11.359527
27	0x4123a403	10.227542
28	0x3fede1d8	1.8584547
29	0x3faa6370	1.3311596
30	0x4094b254	4.6467686
31	0x40af2fbc	5.474577
32	0x40e110a9	7.0332837
33	0x4128503d	10.519589
34	0x40c3acb2	6.114831
35	0x410c3a3a	8.764215
36	0x40bd2469	5.9106946
37	0x4141d5e6	12.114721
38	0x4103dfe9	8.242166
39	0x4165d1e1	14.36374
40	0x4173f76b	15.247905
41	0x40f1d42c	7.55715
42	0x4182c0b0	16.344086
43	0x40c28aa9	6.0794263
44	0x4007ca43	2.12172
45	0x4153f582	13.247438
46	0x41823adb	16.278738
47	0x4165113a	14.316706
